app/src/main/assets/model.tflite (tflite, 106480 bytes, 8 tensors)

conv1d/conv1d/Conv2D_bias f4 [32]
000000 a6 30 53 bb 48 0b cb bb f9 ac a9 3b 00 42 b1 3b
       -0.0032225042 -0.006196413 0.0051780907 0.005409479
000010 92 1f 15 3b 01 93 3d bb 62 ff 12 bb b0 85 97 3b
       0.0022754413 -0.0028926732 -0.0022430052 0.004624091
000020 e3 7f 50 b9 6d 8f ab 3b ac e5 29 bb 17 ae 05 bb
       -0.00019884067 0.0052356035 -0.0025924249 -0.0020397955
000030 87 c1 0d ba c2 e8 e4 ba fa 6b 02 bb 0a ea 5e 3a
       -0.0005407561 -0.0017464387 -0.0019900785 0.00085035025
000040 97 10 54 ba 62 1a 96 bb b3 96 c0 3a 4d 85 39 bb
       -0.000808963 -0.004580782 0.0014693349 -0.0028308213
000050 98 2b 82 bb 5a d2 84 3a c9 cb 15 bb 8e 93 1c 3b
       -0.003972482 0.001013349 -0.002285706 0.002389166
000060 a3 a9 49 bb ab c4 d9 b9 fe 85 64 bb d4 0d b7 bb
       -0.0030771277 -0.00041535994 -0.0034869905 -0.0055863652
000070 69 7a 42 bb 78 2f 46 bb 44 8c d6 39 bb ae db ba
       -0.0029675013 -0.0030240696 0.00040921767 -0.0016760448

conv1d/conv1d/ExpandDims_1 u1 [32, 1, 5, 50] scale=0.0009981706 zero_point=0
000000 b6 32 21 36 51 1d 50 f7 37 db 8c 97 34 a7 01 5a
       0.18166704 0.04990853 0.032939628 0.05390121 0.080851816 0.028946947 0.07985365 0.24654813 0.054899383 0.21859936 0.13974388 0.15072376 0.051904872 0.16669449 0.0009981706 0.08983535
000010 61 60 4e 0a 76 c5 a2 f5 71 41 72 a1 07 ae 0f 5c
       0.096822545 0.095824376 0.07785731 0.009981706 0.11778413 0.1966396 0.16170363 0.2445518 0.112793274 0.06488109 0.11379144 0.16070546 0.006987194 0.17368168 0.014972558 0.09183169
000020 91 f4 d3 97 9c a0 ae e6 7b f5 9f 5d c5 cd 5b 0a
       0.14473474 0.24355362 0.210614 0.15072376 0.15571462 0.1597073 0.17368168 0.22957924 0.12277498 0.2445518 0.15870912 0.09282986 0.1966396 0.20462497 0.09083352 0.009981706
000030 89 77 85 42 4c 46 c5 aa 76 26 68 0b 49 15 2b 0a
       0.13674937 0.1187823 0.13275668 0.065879256 0.07586096 0.06987194 0.1966396 0.169689 0.11778413 0.03793048 0.103809744 0.010979876 0.072866455 0.020961583 0.042921335 0.009981706
000040 eb f3 73 44 4f 36 f3 30 6a 4d e5 db a7 1f 44 18
       0.23457009 0.24255545 0.11478962 0.0678756 0.07885548 0.05390121 0.24255545 0.047912188 0.10580608 0.07685913 0.22858106 0.21859936 0.16669449 0.030943288 0.0678756 0.023956094
000050 40 1f 4c 67 c8 cd a1 5d 24 5e 9b 17 66 c1 f8 38
       0.06388292 0.030943288 0.07586096 0.10281157 0.19963412 0.20462497 0.16070546 0.09282986 0.035934143 0.09382804 0.15471645 0.022957923 0.1018134 0.19264692 0.2475463 0.055897553
000060 13 b3 ab fb 2d 77 10 24 d1 9e 28 22 9d 04 0d e7
       0.01896524 0.17867254 0.17068717 0.25054082 0.044917677 0.1187823 0.01597073 0.035934143 0.20861766 0.15771095 0.039926823 0.0339378 0.15671279 0.0039926823 0.012976218 0.23057741
000070 18 ea 67 31 66 13 8b 14 c5 c6 ba 06 04 46 2b 19
       0.023956094 0.23357192 0.10281157 0.048910357 0.1018134 0.01896524 0.13874571 0.019963412 0.1966396 0.19763778 0.18565972 0.0059890235 0.0039926823 0.06987194 0.042921335 0.024954265
000080 fa ae 0f eb f1 bb 17 18 b9 c6 93 88 f8 63 b4 ac
       0.24954264 0.17368168 0.014972558 0.23457009 0.24055912 0.1866579 0.022957923 0.023956094 0.18466155 0.19763778 0.14673108 0.1357512 0.2475463 0.09881889 0.1796707 0.17168534
000090 fe b5 1c 32 f5 ac fd 8d ee 9d 0e 1a f1 bf 74 cc
       0.25353533 0.18066888 0.027948776 0.04990853 0.2445518 0.17168534 0.25253716 0.14074205 0.2375646 0.15671279 0.013974388 0.025952436 0.24055912 0.19065058 0.11578779 0.2036268
0000a0 55 ab eb 45 31 da bd 4a 97 a8 15 93 f4 e0 f7 8b
       0.0848445 0.17068717 0.23457009 0.06887377 0.048910357 0.21760118 0.18865424 0.073864624 0.15072376 0.16769266 0.020961583 0.14673108 0.24355362 0.22359021 0.24654813 0.13874571
0000b0 23 f9 f5 95 41 13 0a a4 1f 29 ea 9a f0 11 6b ed
       0.03493597 0.24854447 0.2445518 0.14872742 0.06488109 0.01896524 0.009981706 0.16369997 0.030943288 0.040924992 0.23357192 0.15371826 0.23956093 0.0169689 0.10680425 0.23656642
0000c0 01 53 54 4c c4 c3 e8 a4 4b 19 25 3d 26 34 65 8d
       0.0009981706 0.08284816 0.08384633 0.07586096 0.19564143 0.19464326 0.23157558 0.16369997 0.07486279 0.024954265 0.036932312 0.060888406 0.03793048 0.051904872 0.10081523 0.14074205
0000d0 8d 8d f0 b1 6b f9 62 78 f9 f5 23 d7 18 a6 e7 c1
       0.14074205 0.14074205 0.23956093 0.1766762 0.10680425 0.24854447 0.097820714 0.119780466 0.24854447 0.2445518 0.03493597 0.21460667 0.023956094 0.16569632 0.23057741 0.19264692
0000e0 96 6b 22 36 69 d4 c5 00 45 b9 6e ac 1c b2 a2 4c
       0.14972559 0.10680425 0.0339378 0.05390121 0.10480791 0.21161216 0.1966396 0.0 0.06887377 0.18466155 0.10979877 0.17168534 0.027948776 0.17767437 0.16170363 0.07586096
0000f0 a8 27 c3 4b f8 f1 8e 34 f5 0d c4 3b eb 5c 62 02
       0.16769266 0.038928654 0.19464326 0.07486279 0.2475463 0.24055912 0.14174022 0.051904872 0.2445518 0.012976218 0.19564143 0.058892064 0.23457009 0.09183169 0.097820714 0.0019963412

conv1d_1/conv1d/Conv2D_bias f4 [64]
000000 9f ed 85 bb f5 f4 30 bb 8a 1d 89 bb b2 e4 b3 3b
       -0.0040871645 -0.0027001475 -0.0041844295 0.005489909
000010 7c 83 92 bb 1e ae 9c ba 56 ff 88 3b 1d c9 50 3b
       -0.0044712406 -0.0011953746 0.004180829 0.0031858154
000020 b5 ff a0 39 cc 47 b0 3b 3a 37 a1 bb 32 95 3d 3b
       0.00030708095 0.0053796526 -0.0049199136 0.0028928039
000030 9e d7 30 bb 1a 44 0c bb cf 3d 8c bb 96 c7 71 3b
       -0.0026983987 -0.0021402896 -0.004279829 0.0036892644
000040 a9 19 80 bb 3e 97 bd 38 0a 69 ad 3b f9 4a 81 bb
       -0.003909309 9.040393e-05 0.0052920626 -0.003945705
000050 e2 c9 86 3b c4 7a 82 bb 4c 87 52 bb 53 7a 40 3b
       0.004113422 -0.00398192 -0.00321241 0.0029369786
000060 72 95 a0 3b c1 17 8d 39 2a b3 88 3b 53 ad 91 bb
       0.004900628 0.00026911314 0.0041717486 -0.0044457107
000070 fa 79 75 3b f0 68 c0 3b d2 fa 8a bb 1f 62 d3 ba
       0.0037456737 0.0058718845 -0.004241326 -0.0016127265
000080 4e a1 89 b8 c0 d6 24 3a fb 3d d6 ba ce 3f d1 3a
       -6.5627144e-05 0.0006288104 -0.0016345376 0.001596445
000090 ba 53 64 bb 93 6b 54 3b f5 65 44 3b 7c d8 66 3b
       -0.0034839944 0.0032412752 0.0029967998 0.003522425
0000a0 cf 84 98 bb dd 2d 8e ba cb f4 b5 bb 00 7b 9d 3b
       -0.004654504 -0.0010847409 -0.0055528632 0.0048059225
0000b0 59 e4 55 bb 08 dc 56 b8 70 9d 87 b9 ae 1a 8f b9
       -0.0032637327 -5.1226496e-05 -0.00025866507 -0.00027294963
0000c0 b5 ee 8c bb ce f0 9c bb a4 c6 77 b9 75 fe 03 3c
       -0.004300917 -0.0047894483 -0.00023629755 0.008056273
0000d0 f8 b7 c5 ba 3e 1a ec ba 51 e9 4c b8 54 3a 1e bb
       -0.0015084734 -0.0018013192 -4.8854683e-05 -0.0024143653
0000e0 0f 3e 38 ba de 2c 87 3b 92 5c 65 bb f0 11 09 3b
       -0.00070282904 0.0041252216 -0.0034997803 0.0020915233
0000f0 aa d0 a3 bb 62 ea 4d 3b 39 29 3f 3b 6a 42 0f ba
       -0.00499924 0.003142022 0.0029168858 -0.00054649136

conv1d_1/conv1d/ExpandDims_1 u1 [64, 1, 5, 32] scale=0.00091655995 zero_point=0
000000 30 33 28 46 56 5f 8c 3c 09 6d d0 ac 2a e9 8a b4
       0.043994877 0.04674456 0.0366624 0.0641592 0.078824155 0.08707319 0.1283184 0.054993596 0.00824904 0.09990504 0.19064447 0.15764831 0.03849552 0.21355847 0.12648527 0.16498078
000010 d0 c7 88 2b b9 ab e9 eb 00 d7 c0 27 98 60 5f 42
       0.19064447 0.18239543 0.124652155 0.039412078 0.16956359 0.15673175 0.21355847 0.21539159 0.0 0.19706039 0.17597951 0.035745837 0.13931711 0.087989755 0.08707319 0.060492955
000020 07 f2 af 4a 95 7a 57 71 05 44 b1 0e 4b 23 da 2f
       0.0064159194 0.22180751 0.16039799 0.06782544 0.13656743 0.11182031 0.07974072 0.10357127 0.0045828 0.062326077 0.16223112 0.012831839 0.068742 0.0320796 0.19981007 0.04307832
000030 0a 4c 39 60 35 c2 8c 70 6b 75 c0 a3 96 ee 8f cb
       0.0091656 0.069658555 0.05224392 0.087989755 0.048577677 0.17781264 0.1283184 0.10265471 0.09807192 0.10723751 0.17597951 0.14939927 0.137484 0.21814127 0.13106807 0.18606167
000040 26 69 5f eb 5d a4 ad b9 f3 0d 53 db 2f 4e fd 07
       0.034829278 0.09623879 0.08707319 0.21539159 0.08524007 0.15031584 0.15856487 0.16956359 0.22272407 0.01191528 0.07607447 0.20072663 0.04307832 0.07149167 0.23188967 0.0064159194
000050 fd ba 03 ff 42 41 9a 4e cd 92 5e 51 9d 8a 23 48
       0.23188967 0.17048015 0.0027496798 0.23372279 0.060492955 0.059576396 0.14115024 0.07149167 0.18789479 0.13381775 0.08615664 0.074241355 0.14389992 0.12648527 0.0320796 0.06599232
000060 fe b5 70 0a d9 6b 46 8f 8b 0f 9e 0d 52 a2 8a 11
       0.23280622 0.16589735 0.10265471 0.0091656 0.1988935 0.09807192 0.0641592 0.13106807 0.12740183 0.013748399 0.14481647 0.01191528 0.07515792 0.14848271 0.12648527 0.015581519
000070 bc 07 0d bc ad 2f 21 8c 96 6f 03 f6 68 f0 ae 31
       0.17231327 0.0064159194 0.01191528 0.17231327 0.15856487 0.04307832 0.030246478 0.1283184 0.137484 0.101738155 0.0027496798 0.22547375 0.09532224 0.21997438 0.15948144 0.044911437
000080 c5 d6 10 e8 1a 30 2d c8 3d 12 2e e2 0f c9 c7 f5
       0.1805623 0.19614384 0.014664959 0.21264191 0.02383056 0.043994877 0.041245196 0.18331198 0.055910155 0.01649808 0.04216176 0.20714255 0.013748399 0.18422855 0.18239543 0.22455719
000090 ec 42 45 e9 09 f9 59 4e 39 2c 59 1f e1 58 d3 8f
       0.21630815 0.060492955 0.06324264 0.21355847 0.00824904 0.22822343 0.08157384 0.07149167 0.05224392 0.040328637 0.08157384 0.02841336 0.20622599 0.08065727 0.19339415 0.13106807
0000a0 15 a6 77 58 00 28 92 ae 6a b9 5b 56 3e e2 d7 fb
       0.01924776 0.15214895 0.10907064 0.08065727 0.0 0.0366624 0.13381775 0.15948144 0.097155355 0.16956359 0.083406955 0.078824155 0.05682672 0.20714255 0.19706039 0.23005655
0000b0 32 29 d0 b5 bf e0 78 8d 08 28 57 e6 27 f9 b7 27
       0.045827996 0.03757896 0.19064447 0.16589735 0.17506295 0.20530942 0.10998719 0.12923495 0.0073324796 0.0366624 0.07974072 0.21080878 0.035745837 0.22822343 0.16773047 0.035745837
0000c0 0c d6 95 58 73 0d 9a ae b7 d6 b3 a8 5e dc 8b a1
       0.010998719 0.19614384 0.13656743 0.08065727 0.10540439 0.01191528 0.14115024 0.15948144 0.16773047 0.19614384 0.16406423 0.15398207 0.08615664 0.20164318 0.12740183 0.14756615
0000d0 fe f6 1f f9 1e 19 8d 40 bf ba 5c 8a 3c cd 02 ad
       0.23280622 0.22547375 0.02841336 0.22822343 0.027496798 0.022913998 0.12923495 0.058659837 0.17506295 0.17048015 0.08432352 0.12648527 0.054993596 0.18789479 0.0018331199 0.15856487
0000e0 04 ce e9 4a 54 c5 1d 58 29 f6 3e 29 0d d9 21 08
       0.0036662398 0.18881135 0.21355847 0.06782544 0.07699104 0.1805623 0.026580239 0.08065727 0.03757896 0.22547375 0.05682672 0.03757896 0.01191528 0.1988935 0.030246478 0.0073324796
0000f0 e7 ec a4 a2 a8 98 bf 02 58 68 fa 1f 1f f1 31 c0
       0.21172535 0.21630815 0.15031584 0.14848271 0.15398207 0.13931711 0.17506295 0.0018331199 0.08065727 0.09532224 0.22913998 0.02841336 0.02841336 0.22089095 0.044911437 0.17597951

dense/MatMul_bias f4 [256]
000000 51 b1 8a 3b 1f 55 d1 bb c0 a4 6b 3b 06 63 22 3c
       0.0042325635 -0.006388321 0.0035956353 0.009911304
000010 fc 4f 49 bb 76 62 42 3b 2a b1 7c bb 00 00 00 00
       -0.003071784 0.0029660738 -0.0038557746 0.0
000020 27 bd 67 ba 93 2a 7d bb a6 b0 c1 3a f6 df 80 bb
       -0.00088401366 -0.0038630113 0.0014777377 -0.003932948
000030 df ca 8f 3b 5c e8 b5 bb 64 65 21 bb 13 2b 7d 3b
       0.004388198 -0.005551381 -0.0024627084 0.003863041
000040 63 cd bf bb 49 4d b3 ba 52 d8 96 3b 2e fc bd 3b
       -0.0058533414 -0.0013679649 0.004603424 0.0057978844
000050 75 ea 71 bb f6 93 5f bb 89 21 11 bb 67 25 62 3b
       -0.003691343 -0.0034115291 -0.0022145233 0.0034507157
000060 75 6e 32 bb 64 e6 64 3b 13 0e da 3b 13 1a b8 3b
       -0.0027226482 0.0034927363 0.00665451 0.0056183427
000070 cd d5 2d ba 1f f0 95 bb ba 90 0e 3c 03 87 53 bb
       -0.0006631285 -0.004575744 0.008701498 -0.0032276518
000080 87 eb 67 3b 15 f5 32 bb 32 54 2d bb 93 34 88 bb
       0.0035388188 -0.0027306725 -0.002644789 -0.004156658
000090 4a b8 76 bb 63 09 69 bb 54 5e f2 3a 8b 3e 50 3b
       -0.0037646466 -0.0035558573 0.0018491247 0.003177556
0000a0 90 40 ab bb 12 7d d9 3b 3a 4e e8 ba f8 ea b7 ba
       -0.0052262023 0.006637224 -0.0017723509 -0.0014031818
0000b0 06 e8 89 bb 81 d7 1e bb 88 5f 97 ba a4 9c 8b bb
       -0.0042085676 -0.0024237337 -0.0011548856 -0.0042606164
0000c0 d4 ca 1c 3b f7 ad 84 3b f1 8c aa 3b f2 c4 25 3b
       0.0023924606 0.0040490585 0.00520479 0.002529439
0000d0 c6 42 a1 3b e0 40 24 bb 7b c0 4a 3b 5b 1c 84 bb
       0.00492129 -0.0025063083 0.0030937481 -0.0040317005
0000e0 01 47 3a 3b 1f d8 2e bb 85 34 1a bb 22 81 5e bb
       0.002842367 -0.0026679111 -0.002352984 -0.003395148
0000f0 7c 79 2d bb ac e6 4d 3b 51 ff cc bb 70 84 05 bb
       -0.0026470115 0.0031418009 -0.006256022 -0.0020373128
000100 b1 b2 c4 ba 84 44 c6 3b 1b c2 7a bb d6 3d 0e 3c
       -0.0015006867 0.006050648 -0.0038262669 0.008681735
000110 ca 16 8d bb 07 75 9f bb ee d8 8e ba a8 ca 27 bb
       -0.004305695 -0.0048662457 -0.001089839 -0.002560297
000120 db 5d 9e bb 21 0d ad 3b e8 18 a0 bb 04 c0 21 3b
       -0.004832966 0.005281106 -0.0048857816 0.00246811
000130 0d 8f 4b 3b 35 2a 1c 3c bf eb 08 3c 39 9f 6d bb
       0.0031060607 0.009531547 0.0083569875 -0.0036258234
000140 9a a4 2f 3b c4 1a 84 ba cb 9a ba bb d4 6c 65 3b
       0.002680099 -0.0010078778 -0.0056947223 0.0035007494
000150 1d 6c 96 bb 7c 30 44 3b 11 ce 76 3b 6f 47 4a bb
       -0.004590525 0.0029936126 0.0037659446 -0.0030865332
000160 f6 d6 b1 ba 52 3c a1 bb 32 86 88 ba 37 26 0c bb
       -0.0013568092 -0.004920521 -0.001041597 -0.0021385083
000170 ab 0e e2 3b f9 1d 3a 3b 6b 3f e4 3b b6 1e 58 ba
       0.006898721 0.0028399213 0.006965568 -0.00082443224
000180 ac 4c 50 3b c4 54 fb 3b a2 7a 18 bb bd a3 71 bb
       0.0031783981 0.007670017 -0.0023266454 -0.0036871277
000190 dd 3b 2a b9 c1 75 b1 3b ee 27 87 3a 28 1b e7 3a
       -0.00016234764 0.0054156487 0.0010311583 0.0017631995
0001a0 ec 4f d9 3a a8 65 9f 3b ac 4a a6 bb 82 f8 c1 3a
       0.0016579605 0.0048644133 -0.0050748195 0.0014798793
0001b0 08 7e 0c 39 11 b2 2f bb ba 8a c6 bb 8b 7a 72 bb
       0.00013398391 -0.0026809017 -0.006059018 -0.003699931
0001c0 ec 67 80 bb 45 1f 95 bb 8c dc 0b 3b 3d b9 79 3b
       -0.0039186385 -0.0045508468 0.0021341173 0.0038104795
0001d0 40 c3 11 bb 62 2c 7d bb d3 30 8e 3b b8 e2 b7 bb
       -0.0022241622 -0.003863119 0.0043393164 -0.005611744
0001e0 4b 62 13 3b 11 34 85 bb 9f 30 61 3b e0 ce b8 3b
       0.0022489007 -0.0040650447 0.0034361256 0.005639896
0001f0 b1 d0 91 bb 60 ed 09 3b ff 17 b8 bb fc eb 51 3b
       -0.004449927 0.0021046028 -0.005618095 0.0032031527
000200 1c 93 67 3b 08 a7 e8 3b 6f 0b 8c bb a2 b8 27 3b
       0.0035335487 0.00709999 -0.004273824 0.0025592227
000210 a7 36 8e bb be 99 55 3b 90 33 72 bb 07 bb 33 3b
       -0.004340011 0.0032592858 -0.0036957003 0.002742471
000220 b6 21 e6 ba 16 10 96 3b 35 bb 73 bb de 87 9d 3b
       -0.0017557654 0.0045795543 -0.0037190442 0.0048074564
000230 38 6b cd 3b 42 54 53 3b a3 ae 05 3b bb b4 15 3b
       0.006268885 0.0032246266 0.002039828 0.002284332
000240 1d 9b 95 bb b3 a4 b8 bb 33 b2 b2 bb a3 3e 95 3b
       -0.00456561 -0.005634868 -0.005453372 0.004554586
000250 47 54 d4 3b f1 21 a4 bb 67 98 86 bb 94 27 be 3b
       0.006479773 -0.005008929 -0.0041075232 0.005803058
000260 60 3a 89 ba 9d f6 38 bb f0 b3 61 3b 60 de ab 3b
       -0.0010469668 -0.0028223165 0.0034439526 0.005245015
000270 0e 7f 5a 3b e0 96 2d bb c4 04 bc bb 21 20 33 bb
       0.003333989 -0.0026487634 -0.005737873 -0.0027332383
000280 9d 29 8c bb d8 0e 72 ba 47 69 5f 3b a6 1b 9c 3b
       -0.0042774216 -0.0009233779 0.003408985 0.004764038
000290 58 ad ab bb d9 35 a1 3a e5 29 97 bb 54 45 ea ba
       -0.00523917 0.0012299373 -0.0046131485 -0.0017873445
0002a0 c3 e1 88 bb 66 86 13 bb a0 87 6f bb f4 9b af 3b
       -0.0041773035 -0.0022510528 -0.0036549345 0.0053591672
0002b0 61 a7 b4 3b 5a 81 b7 3b 7e 40 4d bb bf 95 49 3b
       0.005513117 0.0056001367 -0.0031318958 0.0030759422
0002c0 5c 9b 47 3b 7e f1 8a 38 ba 8b 05 3b 29 82 fc 39
       0.0030457592 6.625334e-05 0.0020377473 0.00048162162
0002d0 f7 b9 cc 3b 5f 2c 3d 3b 57 15 74 bb 18 a2 11 3c
       0.0062477547 0.0028865559 -0.0037244165 0.008888744
0002e0 94 29 bc 3b 99 6d b2 bb 89 3f 88 bb 29 13 8b 3b
       0.005742261 -0.005445194 -0.0041579646 0.0042442274
0002f0 5d bf c8 3b 5e c0 6c 3b a0 36 b1 3a c8 5b c5 ba
       0.006126328 0.0036125402 0.0013520308 -0.001505726
000300 79 0a 81 bb 38 f6 b1 3a 1c c3 79 bb 75 be a7 39
       -0.003938016 0.0013577407 -0.003811068 0.00031994624
000310 df af a7 3b e2 0f 80 bb 0b fa 87 bb fe 6c 59 ba
       0.005117401 -0.0039081434 -0.0041496805 -0.0008294134
000320 67 1d 1e bb b4 09 8f 3b d4 44 81 bb f2 08 43 38
       -0.0024126412 0.0043651704 -0.0039449725 4.6499954e-05
000330 32 56 11 3b 51 d9 c3 3b 61 5d 24 bb 0c 65 24 bb
       0.002217662 0.005976834 -0.0025080072 -0.0025084643
000340 09 5e 84 3b 0d 71 bf 3b 0e a6 ad 3b 52 70 40 bb
       0.00403953 0.005842334 0.0052993363 -0.0029363823
000350 cf bd 84 bb 07 a2 88 3b 98 b3 66 3b e8 2a 0a bb
       -0.0040509473 0.004169706 0.003520226 -0.0021082703
000360 5e e3 c8 bb c0 e4 5e bb a8 e8 ca 3a aa 77 af bb
       -0.00613062 -0.0034010857 0.0015480714 -0.0053548412
000370 ce 77 25 bb 5f 77 8e 3b 72 56 ce bb 66 eb 50 bb
       -0.002524841 0.0043477262 -0.006296926 -0.003187859
000380 3c 58 03 bb cd 78 83 ba 50 e0 7a bb 86 1c 62 bb
       -0.0020041605 -0.0010030508 -0.0038280673 -0.0034501865
000390 96 55 2c bb d5 3b 5e bb 7b 20 b9 3a 0e a1 84 bb
       -0.002629613 -0.0033910174 0.001412406 -0.0040475195
0003a0 72 b7 bb 39 f5 1f a3 3b 69 5d c6 3b 1a 0b 22 b9
       0.00035804097 0.004978175 0.006053616 -0.0001545366
0003b0 76 11 19 bb 46 9b 95 3a bc 25 43 bb 43 83 2c 3b
       -0.0023356355 0.0011414073 -0.002977713 0.0026323355
0003c0 00 00 00 00 f3 9c b7 3b 2d 1b e6 3a 50 36 8c 3b
       0.0 0.0056034266 0.0017555706 0.0042789355
0003d0 f5 78 e2 ba 31 dc 1a 3c 29 43 cb 3b 65 11 5c 3b
       -0.001727848 0.009451912 0.0062030745 0.0033579704
0003e0 60 8b 87 3b b3 ae 8f bb c7 0d 88 3b a9 f0 9a 3a
       0.004136488 -0.0043848394 0.004152033 0.001182099
0003f0 96 f5 54 3b fa d4 7a 3b 39 46 c6 39 94 db 94 b9
       0.0032495013 0.0038273917 0.00037817823 -0.00028392358

dense/kernel/transpose u1 [256, 320] scale=0.00085296953 zero_point=0
000000 17 fd 05 c3 22 98 0e f8 02 51 6c b7 cf 57 92 38
       0.019618299 0.2158013 0.004264848 0.16632906 0.029000964 0.12965137 0.011941574 0.21153644 0.0017059391 0.06909053 0.09212071 0.15609342 0.1765647 0.07420835 0.12453355 0.047766294
000010 3b d8 3d c8 56 23 65 c4 31 0e c6 b1 1c 30 15 13
       0.050325204 0.18424141 0.05203114 0.1705939 0.07335538 0.029853934 0.08614992 0.16718203 0.041795507 0.011941574 0.16888797 0.15097561 0.023883147 0.04094254 0.01791236 0.016206421
000020 e9 40 dc e1 df 9b ca 05 8f 5f 00 01 33 55 f2 72
       0.1987419 0.05459005 0.1876533 0.19191815 0.1902122 0.13221028 0.17229985 0.004264848 0.12197464 0.081032105 0.0 0.00085296953 0.043501448 0.07250241 0.20641863 0.097238526
000030 87 c7 19 e1 b3 e7 55 e3 a3 2c 03 25 17 be 38 52
       0.115150884 0.16974093 0.021324238 0.19191815 0.15268154 0.19703597 0.07250241 0.19362408 0.13903403 0.03753066 0.0025589087 0.031559873 0.019618299 0.16206421 0.047766294 0.0699435
000040 a3 3a 27 ab 99 fd 9d 38 d0 e9 3c 93 c9 31 d2 e2
       0.13903403 0.04947223 0.03326581 0.1458578 0.13050434 0.2158013 0.13391621 0.047766294 0.17741767 0.1987419 0.051178172 0.12538652 0.17144687 0.041795507 0.1791236 0.19277112
000050 f3 75 51 4d 05 b6 4b 60 d7 51 df 27 5f 58 1d c2
       0.20727159 0.099797435 0.06909053 0.065678656 0.004264848 0.15524046 0.06397271 0.08188508 0.18338846 0.06909053 0.1902122 0.03326581 0.081032105 0.07506132 0.024736116 0.16547608
000060 55 ab 9c 89 5d 14 5e 94 92 c2 14 0a 06 36 71 0b
       0.07250241 0.1458578 0.13306324 0.11685683 0.07932617 0.017059391 0.08017913 0.1262395 0.12453355 0.16547608 0.017059391 0.008529696 0.0051178173 0.046060354 0.09638556 0.009382665
000070 58 63 5f 39 d3 e8 c2 5f 1a bd 0f 1f 14 d6 1e da
       0.07506132 0.08444399 0.081032105 0.048619263 0.17997657 0.19788893 0.16547608 0.081032105 0.022177208 0.16121124 0.012794543 0.026442055 0.017059391 0.18253548 0.025589086 0.18594736
000080 76 b9 00 b6 99 d3 c1 57 30 d7 c5 28 9e 22 27 40
       0.10065041 0.15779936 0.0 0.15524046 0.13050434 0.17997657 0.16462313 0.07420835 0.04094254 0.18338846 0.168035 0.034118783 0.13476919 0.029000964 0.03326581 0.05459005
000090 64 3b 65 4f d6 30 64 2b b3 72 77 29 e1 6f fd 50
       0.08529695 0.050325204 0.08614992 0.06738459 0.18253548 0.04094254 0.08529695 0.03667769 0.15268154 0.097238526 0.10150337 0.03497175 0.19191815 0.09467962 0.2158013 0.068237565
0000a0 14 bc b5 26 dd a5 5e 72 b3 5b 52 bd 42 26 39 f9
       0.017059391 0.16035827 0.15438749 0.032412842 0.18850626 0.14073998 0.08017913 0.097238526 0.15268154 0.07762023 0.0699435 0.16121124 0.05629599 0.032412842 0.048619263 0.21238941
0000b0 c1 76 66 9f 89 42 99 b2 0a 61 2a 67 b2 eb 92 43
       0.16462313 0.10065041 0.087002896 0.13562216 0.11685683 0.05629599 0.13050434 0.15182857 0.008529696 0.08273804 0.03582472 0.08785586 0.15182857 0.20044784 0.12453355 0.05714896
0000c0 54 ce 27 2b 14 dd 2f 27 ee d2 2c ef af df fe 89
       0.07164944 0.17571172 0.03326581 0.03667769 0.017059391 0.18850626 0.040089566 0.03326581 0.20300674 0.1791236 0.03753066 0.20385972 0.14926967 0.1902122 0.21665426 0.11685683
0000d0 c6 87 20 c4 1d c3 5e fb bf ac 70 e1 19 bd 13 b9
       0.16888797 0.115150884 0.027295025 0.16718203 0.024736116 0.16632906 0.08017913 0.21409535 0.16291718 0.14671075 0.09553259 0.19191815 0.021324238 0.16121124 0.016206421 0.15779936
0000e0 c5 56 3d 1d 18 46 b8 68 2a ab bb c4 ba 2c 32 96
       0.168035 0.07335538 0.05203114 0.024736116 0.02047127 0.05970787 0.15694639 0.08870883 0.03582472 0.1458578 0.15950531 0.16718203 0.15865234 0.03753066 0.042648476 0.12794542
0000f0 be 6e bf c5 23 f9 53 fb 52 b7 32 c5 35 d7 a7 da
       0.16206421 0.09382665 0.16291718 0.168035 0.029853934 0.21238941 0.070796475 0.21409535 0.0699435 0.15609342 0.042648476 0.168035 0.045207385 0.18338846 0.1424459 0.18594736

dense_1/MatMul_bias f4 [2]
000000 07 df 9c 3b 07 df 9c bb
       0.004787329 -0.004787329

dense_1/kernel/transpose f4 [2, 256]
000000 97 92 14 3e 88 22 15 bd d5 b0 a8 3b 93 ab 51 3d
       0.14509045 -0.036409885 0.005148033 0.051189017
000010 7b dd 8b bd ed f9 69 3b c8 43 06 3c b8 6e e4 3d
       -0.068293534 0.0035701946 0.008194871 0.111539304
000020 98 de 72 bc 63 83 16 be b6 16 11 3d 4c ee ce bd
       -0.014823578 -0.14698558 0.03542205 -0.10104045
000030 26 48 a3 bd 28 0a 18 be 91 fa bb bd 10 df 16 3e
       -0.079727456 -0.14847624 -0.09178651 0.14733529
000040 6f bb 93 bd a8 11 89 3d 3d 2d d4 bd ca e0 bc 3d
       -0.072134845 0.06692821 -0.10360191 0.092225626
000050 9b 7f b6 bd 1f 52 60 bd 55 cc f1 bd 1c 51 7b bc
       -0.089110576 -0.054765817 -0.11806551 -0.015339162
000060 b8 9c 0d be 9d a2 a9 bd 73 54 c6 bd 1f ac 6b bd
       -0.13829315 -0.08282969 -0.09684076 -0.057537194
000070 db 05 82 3d 90 2b 9f bd 15 62 c7 3d cd 5e aa bd
       0.06348773 -0.07771981 0.097355045 -0.08318863
000080 fa 51 ff 3d 4c 92 ae 3d ed a7 99 bd e5 e6 62 bc
       0.12466808 0.08523998 -0.075027324 -0.013848995
000090 64 c3 a2 bd 9b 4e 14 be 09 d3 15 3e b2 87 14 3e
       -0.07947424 -0.1448311 0.14631285 0.14504889
0000a0 92 fd 85 3d d0 0d e4 3d f5 46 87 bd 2d 88 0e be
       0.06542505 0.11135447 -0.06605331 -0.13919134
0000b0 5a 97 c3 bd 4f 2c 0d be c3 ac 7e bd e0 77 d6 bd
       -0.095503524 -0.13786434 -0.062176477 -0.10472083
0000c0 ba 7b 95 bd 2f 18 a0 3d 29 9b e2 3d 05 3b 9e bc
       -0.072989896 0.07817113 0.11064751 -0.019315252
0000d0 e6 b0 52 bd c2 bd 2c 3c 5f bc 13 3e f5 fb 1b 3c
       -0.051438235 0.010543289 0.14427327 0.00952052
0000e0 e7 1d 0f be 3e 0e 26 3c 22 b1 6e bd 16 e6 ab bd
       -0.1397625 0.010135232 -0.058274396 -0.08393495
0000f0 06 f9 13 be b5 36 82 3d 48 ca 44 bd 78 a1 07 3c
       -0.14450464 0.06358091 -0.048044473 0.008278243
000100 bf 4d b1 3d 7d cc 74 3c 3d 86 31 3d ff ff e3 3d
       0.08657407 0.014941332 0.04334091 0.11132812
000110 b7 8f 01 be e7 0c f4 bd a7 03 0b bd 78 6d b7 bd
       -0.12652479 -0.119165234 -0.03393903 -0.089564264
000120 80 48 1d 3c bc 78 cd 3d 1c f7 86 bb 93 d9 af 3d
       0.009599805 0.10032794 -0.004118813 0.08586421
000130 a8 ba 02 3e 67 25 17 3e 90 ee c6 3d 7a 64 f6 bd
       0.12766516 0.14760362 0.09713471 -0.12030883
000140 94 1b de 3d 17 1b 9b bd 8a cc 04 be 1e 77 f2 bc
       0.10845104 -0.07573526 -0.1296865 -0.029597815
000150 79 06 7e 3d 22 47 aa 3c 4e a7 24 3c ac b7 18 be
       0.06201789 0.020785872 0.010049654 -0.14913815
000160 d2 4e 63 bd 44 0d 0f be 95 72 42 3d 14 32 42 bc
       -0.05549509 -0.13969904 0.047472555 -0.01185276
000170 6e 6a c4 bd 5f e1 98 3d dc 0b d4 3d 05 70 81 3b
       -0.09590612 0.07464861 0.103538245 0.0039501213
000180 9f 93 a4 3d eb cd 0e 3e ba e4 51 3d a0 6f 0f be
       0.08035969 0.13945739 0.05124352 -0.14007425
000190 70 0c 57 bd ca 1c 0b 3e 77 33 86 3d 39 98 59 bd
       -0.052502096 0.13585201 0.06552785 -0.053123686
0001a0 7e c6 87 3d e7 d1 e5 3d d1 0d 10 be 50 7d d9 3d
       0.06629656 0.11221676 -0.1406777 0.106196046
0001b0 d4 55 58 3d 9a 1a f0 bc e0 38 3e 3c ce 73 96 bd
       0.052816227 -0.02930956 0.01161024 -0.07346307
0001c0 11 3e b2 bd 45 c2 e4 3c 0c c0 92 3d 08 5c a5 bc
       -0.087032445 0.027924666 0.07165536 -0.020185485
0001d0 56 40 dd bd 6e 0d c5 bd 46 82 ed bc 00 46 0c be
       -0.10803287 -0.09621702 -0.028992783 -0.13698578
0001e0 b5 0b ab 3d f2 02 e1 3c 5c c7 24 3d 6e b4 03 3e
       0.08351842 0.027467225 0.040229186 0.12861797
0001f0 86 a9 32 3c 3a c8 bc 3d e6 cf 13 be b7 03 9f 3d
       0.010904675 0.09217878 -0.14434776 0.077643804
000200 c4 51 a5 3d b9 22 5e 3d d0 7e 63 bd 45 ac 22 bd
       0.08072236 0.054232333 -0.05554086 -0.03971507
000210 2a e7 0b be a7 ea b6 3d 18 77 66 bd 28 99 e1 bd
       -0.13662401 0.08931475 -0.05626592 -0.1101554
000220 b2 ad 30 3c 44 39 ad 3d 7d e1 e5 3c f6 b9 ee 3d
       0.0107836 0.08458188 0.028061623 0.11656563
000230 69 d3 11 3e c1 a5 f0 3d 55 0f c7 3d 76 81 33 bd
       0.14240803 0.11750365 0.09719721 -0.043824635
000240 af b4 bf 3c c6 e7 fa bd dd a3 bb bd 1f 7a e1 3d
       0.023401586 -0.122512385 -0.09162114 0.11009621
000250 f6 b1 19 3e be 20 c2 bd 75 25 66 bd 53 a1 1b 3c
       0.15009293 -0.09478901 -0.056188066 0.009498912
000260 12 1e 17 be 56 94 e6 bb eb 6f 98 bc 87 79 b2 bd
       -0.14757565 -0.007036726 -0.018608054 -0.08714586
000270 71 15 04 3e 8a eb 9b 3d a3 ad c2 bd 68 95 17 be
       0.12898804 0.07613285 -0.09505775 -0.14803088
000280 a2 5c e0 bd 84 d9 0c 3d 27 69 c3 3d 65 fd 6c 3c
       -0.10955168 0.034387127 0.095415406 0.014464711
000290 44 51 18 be 48 71 06 3e 52 fe 1b be 5a bb 0f be
       -0.1487475 0.13129151 -0.15233734 -0.14036313
0002a0 47 2a b8 bd 37 d0 d4 3d b8 01 3b bd f6 ad f6 bd
       -0.08992439 0.10391276 -0.045655936 -0.12044899
0002b0 ab 7c 83 3d f4 47 80 bd 6b eb df bd 88 bd 2c 3d
       0.06420263 -0.06263724 -0.10933574 0.04217294
0002c0 d7 20 b5 3d 68 d9 18 3e b6 e3 85 bc b3 41 2e 3d
       0.08844154 0.14926684 -0.016343933 0.042543124
0002d0 4e fc de 3d 68 f0 ff 3d 4e 4e 9c bd c4 8d 16 3e
       0.10887967 0.12497026 -0.07632123 0.14702517
0002e0 21 4e 0d 3e 07 16 85 bc 57 8a be bc 94 11 f7 bd
       0.13799335 -0.016245855 -0.023259325 -0.120639
0002f0 47 eb ae bb d5 38 1c 3e ee ad 86 3d 0f 94 71 3d
       -0.005338106 0.15256055 0.06576143 0.05897909
000300 2d 61 00 be bb 87 da 3d 8e e5 9d bd 6b e0 d0 bc
       -0.1253707 0.1067042 -0.077098 -0.025497636
000310 72 07 be 3d a4 e9 01 3d 9a 8e 02 be f9 54 b9 bd
       0.09278764 0.031716958 -0.1274971 -0.090494104
000320 6b 44 08 be 84 e4 b2 bc 88 d6 d8 bd a1 38 12 be
       -0.1330735 -0.02183748 -0.105877936 -0.14279415
000330 fc ea 9d 3c 86 3c 04 3e f2 90 85 bd 59 36 b2 bd
       0.019277088 0.12913713 -0.06521787 -0.08701772
000340 73 1f 84 3d c3 3d a0 bd e8 c1 67 3c e9 e8 f7 3c
       0.06451311 -0.0782428 0.014145352 0.030262427
000350 7d e9 13 be 6c f8 37 3c 06 a8 10 3e e2 ef e0 bb
       -0.14444537 0.011228662 0.14126596 -0.0068645338
000360 57 2c dc bd 30 78 27 3c 2f 32 0d 3d 5d 1f ef bd
       -0.10750645 0.010221526 0.034471687 -0.11675904
000370 cb b4 f8 bd 3b 22 3b 3c 04 81 01 bd 0a 0a 9f 3c
       -0.121438585 0.011421735 -0.03161718 0.019413967
000380 1b 31 47 bd b5 6c e1 bd 7b e1 f1 bd 62 37 ac 3c
       -0.048630815 -0.11007062 -0.11810585 0.021022502
000390 1c 87 0e be ac 08 ef bd e9 4d 0f 3e fa 03 13 3d
       -0.13918728 -0.11671576 0.13994564 0.035892464
0003a0 76 3a 04 bc 54 64 00 3d 8c 1e 94 3d ce b8 10 3e
       -0.008070579 0.03134568 0.07232389 0.14132997
0003b0 f6 75 84 3c 1f a8 fb bc 4b 0c 8e bd 22 c1 c1 3d
       0.01616953 -0.030719815 -0.069359384 0.09460665
0003c0 da 07 70 bd c8 c1 ad bc 01 96 2e bc 92 f2 01 3d
       -0.058601238 -0.021210566 -0.010655881 0.031725474
0003d0 da a4 82 3c 48 8f ac bd f3 c0 99 3d d4 6d 99 3d
       0.015947748 -0.08425766 0.07507505 0.07491651
0003e0 fc 48 0f 3e 76 42 40 bd c2 d7 f9 3d 41 c1 69 3d
       0.13992685 -0.046938382 0.12199356 0.057069067
0003f0 fd f1 1d bd 62 28 01 3d 40 cb cc 3d b8 96 d6 3d
       -0.038560856 0.031532653 0.09999704 0.10477966
